…
 Layer (type)                   Output Shape         Param #     Connected to                     
==================================================================================================
 ONSOURCE (InputLayer)          [(None, 1, 16392)]   0           []                               
                                                                                                  
 OFFSOURCE (InputLayer)         [(None, 1, 131136)]  0           []                               
                                                                                                  
 whiten (Whiten)                (None, 1, 8196)      0           ['ONSOURCE[0][0]',               
                                                                  'OFFSOURCE[0][0]']              
                                                                                                  
 reshape (Reshape)              (None, 8196, 1)      0           ['whiten[0][0]']                 
                                                                                                  
 conv1d (Conv1D)                (None, 8196, 8)      520         ['reshape[0][0]']                
                                                                                                  
 max_pooling1d (MaxPooling1D)   (None, 1025, 8)      0           ['conv1d[0][0]']                 
                                                                                                  
 conv1d_1 (Conv1D)              (None, 1025, 8)      2056        ['max_pooling1d[0][0]']          
                                                                                                  
 conv1d_2 (Conv1D)              (None, 1025, 16)     4112        ['conv1d_1[0][0]']               
                                                                                                  
 max_pooling1d_1 (MaxPooling1D)  (None, 171, 16)     0           ['conv1d_2[0][0]']               
                                                                                                  
 conv1d_3 (Conv1D)              (None, 171, 16)      4112        ['max_pooling1d_1[0][0]']        
                                                                                                  
 conv1d_4 (Conv1D)              (None, 171, 32)      8224        ['conv1d_3[0][0]']               
                                                                                                  
 max_pooling1d_2 (MaxPooling1D)  (None, 29, 32)      0           ['conv1d_4[0][0]']               
                                                                                                  
 conv1d_5 (Conv1D)              (None, 29, 32)       16416       ['max_pooling1d_2[0][0]']        
                                                                                                  
 flatten (Flatten)              (None, 928)          0           ['conv1d_5[0][0]']               
                                                                                                  
 dense (Dense)                  (None, 64)           59456       ['flatten[0][0]']                
                                                                                                  
 dropout (Dropout)              (None, 64)           0           ['dense[0][0]']                  
                                                                                                  
 dense_1 (Dense)                (None, 64)           4160        ['dropout[0][0]']                
                                                                                                  
 dropout_1 (Dropout)            (None, 64)           0           ['dense_1[0][0]']                
                                                                                                  
 INJECTION_MASKS (Dense)        (None, 1)            65          ['dropout_1[0][0]']              
                                                                                                  
==================================================================================================
Total params: 99,121
Trainable params: 99,121
Non-trainable params: 0
__________________________________________________________________________________________________
…
