…
 Layer (type)                   Output Shape         Param #     Connected to                     
==================================================================================================
 ONSOURCE (InputLayer)          [(None, 1, 16392)]   0           []                               
                                                                                                  
 OFFSOURCE (InputLayer)         [(None, 1, 131136)]  0           []                               
                                                                                                  
 whiten (Whiten)                (None, 1, 8196)      0           ['ONSOURCE[0][0]',               
                                                                  'OFFSOURCE[0][0]']              
                                                                                                  
 reshape (Reshape)              (None, 8196, 1)      0           ['whiten[0][0]']                 
                                                                                                  
 conv1d (Conv1D)                (None, 8196, 64)     1088        ['reshape[0][0]']                
                                                                                                  
 max_pooling1d (MaxPooling1D)   (None, 2049, 64)     0           ['conv1d[0][0]']                 
                                                                                                  
 conv1d_1 (Conv1D)              (None, 2049, 128)    131200      ['max_pooling1d[0][0]']          
                                                                                                  
 max_pooling1d_1 (MaxPooling1D)  (None, 513, 128)    0           ['conv1d_1[0][0]']               
                                                                                                  
 conv1d_2 (Conv1D)              (None, 513, 256)     524544      ['max_pooling1d_1[0][0]']        
                                                                                                  
 max_pooling1d_2 (MaxPooling1D)  (None, 65, 256)     0           ['conv1d_2[0][0]']               
                                                                                                  
 conv1d_3 (Conv1D)              (None, 65, 512)      4194816     ['max_pooling1d_2[0][0]']        
                                                                                                  
 max_pooling1d_3 (MaxPooling1D)  (None, 9, 512)      0           ['conv1d_3[0][0]']               
                                                                                                  
 flatten (Flatten)              (None, 4608)         0           ['max_pooling1d_3[0][0]']        
                                                                                                  
 dense (Dense)                  (None, 64)           294976      ['flatten[0][0]']                
                                                                                                  
 dropout (Dropout)              (None, 64)           0           ['dense[0][0]']                  
                                                                                                  
 dense_1 (Dense)                (None, 64)           4160        ['dropout[0][0]']                
                                                                                                  
 dropout_1 (Dropout)            (None, 64)           0           ['dense_1[0][0]']                
                                                                                                  
 INJECTION_MASKS (Dense)        (None, 1)            65          ['dropout_1[0][0]']              
                                                                                                  
==================================================================================================
Total params: 5,150,849
Trainable params: 5,150,849
Non-trainable params: 0
__________________________________________________________________________________________________
…
